module {
  // Vollst채ndige S-Box f체r SubBytes

  func.func @aes_encrypt(%state: tensor<16xi8>) -> tensor<16xi8> {
    %sbox = arith.constant dense<"…"> : tensor<256xi8>
    // Platzhalter f체r Round Keys (hier nur Nullen, ersetzen durch echte Schl체ssel)
    %round_keys = tensor.empty() : tensor<176xi8>

    %zero = arith.constant 0 : index
    %one = arith.constant 1 : index
    %sixteen = arith.constant 16 : index
    %ten = arith.constant 10 : index
    %t_empty = tensor.empty() : tensor<16xi8>

    // Initial AddRoundKey
    %state_in = scf.for %i = %zero to %sixteen step %one iter_args(%acc = %t_empty) -> tensor<16xi8> {
      %rk = tensor.extract %round_keys[%i] : tensor<176xi8>
      %b = tensor.extract %state[%i] : tensor<16xi8>
      %x = arith.xori %b, %rk : i8
      %acc_next = tensor.insert %x into %acc[%i] : tensor<16xi8>
      scf.yield %acc_next : tensor<16xi8>
    }

    // 9 Runden
    %state1 = scf.for %round = %one to %one step %one iter_args(%state_in_arg = %state_in) -> tensor<16xi8> {
      // SubBytes
      %subbed = scf.for %i = %zero to %sixteen step %one iter_args(%acc = %t_empty) -> tensor<16xi8> {
        %b = tensor.extract %state_in_arg[%i] : tensor<16xi8>
        %bi = arith.extui %b : i8 to i64
        %bii = arith.index_cast %bi : i64 to index
        %sb = tensor.extract %sbox[%bii] : tensor<256xi8>
        %acc_next = tensor.insert %sb into %acc[%i] : tensor<16xi8>
        scf.yield %acc_next : tensor<16xi8>
      }

      // AddRoundKey
      %rk_offset = arith.muli %round, %sixteen : index
      %next_state = scf.for %i = %zero to %sixteen step %one iter_args(%acc = %t_empty) -> tensor<16xi8> {
        %b = tensor.extract %subbed[%i] : tensor<16xi8>
        %rk_idx = arith.addi %rk_offset, %i : index
        %rk = tensor.extract %round_keys[%rk_idx] : tensor<176xi8>
        %x = arith.xori %b, %rk : i8
        %acc_next = tensor.insert %x into %acc[%i] : tensor<16xi8>
        scf.yield %acc_next : tensor<16xi8>
      }

      scf.yield %next_state : tensor<16xi8>
    }

    // Final Runde ohne MixColumns
    %final_r = scf.for %i = %zero to %sixteen step %one iter_args(%acc = %t_empty) -> tensor<16xi8> {
      %b = tensor.extract %state1[%i] : tensor<16xi8>
      %bi = arith.extui %b : i8 to i64
      %bii = arith.index_cast %bi : i64 to index
      %sb = tensor.extract %sbox[%bii] : tensor<256xi8>
      %rk_idx = arith.muli %ten, %sixteen : index
      %rk = tensor.extract %round_keys[%rk_idx] : tensor<176xi8>
      %x = arith.xori %sb, %rk : i8
      %acc_next = tensor.insert %x into %acc[%i] : tensor<16xi8>
      scf.yield %acc_next : tensor<16xi8>
    }

    func.return %final_r : tensor<16xi8>
  }
}